…
 'save_best': False, 'save_final': False, 'learning_rate': 0.01, 'lr_decay': 0.99, 'weight_decay': 1e-05, 'hidden_size': 48, 'edge_dropout': 0.3, 'model_dropout': 0.2, 'early_stopping': 200, 'cpu': 1, 'output_relu': 'none', 'subpath_activation': False, 'cell_init': 'none', 'batch_seperation': False, 'pathway_path': './data/h.all.v7.4', 'seed': 1, 'runs': 1, 'weighted_sum': False, 'sampling': False, 'node_sampling_rate': 0.5, 'preprocessing': 'none', 'low_memory': False, 'FEATURE_SIZE': 13953, 'TRAIN_SIZE': 66175, 'OUTPUT_SIZE': 134, 'CELL_SIZE': 67175, 'BATCH_NUM': 9}
ScMoGCN(
  (extra_encoder): Linear(in_features=9, out_features=48, bias=True)
  (embed_cell): Embedding(2, 48)
  (embed_feat): Embedding(13953, 48)
  (input_linears): ModuleList()
  (input_acts): ModuleList()
  (input_norm): ModuleList()
  (conv_layers): ModuleList(
    (0): HeteroGraphConv(
      (mods): ModuleDict(
        (feature2cell): SAGEConv(
          (feat_drop): Dropout(p=0.0, inplace=False)
          (fc_neigh): Linear(in_features=48, out_features=48, bias=False)
          (fc_self): Linear(in_features=48, out_features=48, bias=True)
        )
        (cell2feature): SAGEConv(
          (feat_drop): Dropout(p=0.0, inplace=False)
          (fc_neigh): Linear(in_features=48, out_features=48, bias=False)
          (fc_self): Linear(in_features=48, out_features=48, bias=True)
        )
      )
    )
    (1-3): 3 x HeteroGraphConv(
      (mods): ModuleDict(
        (feature2cell): SAGEConv(
          (feat_drop): Dropout(p=0.0, inplace=False)
          (fc_neigh): Linear(in_features=96, out_features=48, bias=False)
          (fc_self): Linear(in_features=96, out_features=48, bias=True)
        )
        (cell2feature): SAGEConv(
          (feat_drop): Dropout(p=0.0, inplace=False)
          (fc_neigh): Linear(in_features=96, out_features=48, bias=False)
          (fc_self): Linear(in_features=96, out_features=48, bias=True)
        )
      )
    )
  )
  (conv_acts): ModuleList(
    (0-7): 8 x GELU(approximate='none')
  )
  (conv_norm): ModuleList(
    (0-7): 8 x GroupNorm(4, 48, eps=1e-05, affine=True)
  )
  (att_linears): ModuleList()
  (readout_linears): ModuleList(
    (0): Linear(in_features=192, out_features=134, bias=True)
  )
  (readout_acts): ModuleList()
)
epoch:  0
training loss:  1.0899544936488876
validation loss:  0.7407986948292236
testing loss:  0.8331796305688776
epoch:  1
training loss:  0.7909062816257072
validation loss:  0.6772398669913032
testing loss:  0.6847807469632264
epoch:  2
training loss:  0.7049208700804305
validation loss:  0.6491603958217127
testing loss:  0.6935801409791098
…
